…
    Keyboard            : 1.0000
    Microwave           : 1.0000
    Mobile              : 1.0000
    Mouse               : 1.0000
    PCB                 : 1.0000
    Player              : 1.0000
    Printer             : 1.0000
    Television          : 1.0000
    WashingMachine      : 1.0000

-- STEP 4: Building CNN Model --
Model: "ewaste_cnn"
+--------------------------------------------------------------------------+
| Layer (type)                    | Output Shape           |       Param # |
|---------------------------------+------------------------+---------------|
| rescaling (Rescaling)           | (None, 180, 180, 3)    |             0 |
|---------------------------------+------------------------+---------------|
| data_augmentation (Sequential)  | (None, 180, 180, 3)    |             0 |
|---------------------------------+------------------------+---------------|
| conv2d_0 (Conv2D)               | (None, 180, 180, 16)   |           448 |
|---------------------------------+------------------------+---------------|
| maxpool_0 (MaxPooling2D)        | (None, 90, 90, 16)     |             0 |
|---------------------------------+------------------------+---------------|
| conv2d_1 (Conv2D)               | (None, 90, 90, 32)     |         4,640 |
|---------------------------------+------------------------+---------------|
| maxpool_1 (MaxPooling2D)        | (None, 45, 45, 32)     |             0 |
|---------------------------------+------------------------+---------------|
| conv2d_2 (Conv2D)               | (None, 45, 45, 64)     |        18,496 |
|---------------------------------+------------------------+---------------|
| maxpool_2 (MaxPooling2D)        | (None, 22, 22, 64)     |             0 |
|---------------------------------+------------------------+---------------|
| flatten (Flatten)               | (None, 30976)          |             0 |
|---------------------------------+------------------------+---------------|
| dense_0 (Dense)                 | (None, 128)            |     3,965,056 |
|---------------------------------+------------------------+---------------|
| dropout (Dropout)               | (None, 128)            |             0 |
|---------------------------------+------------------------+---------------|
| output (Dense)                  | (None, 10)             |         1,290 |
+--------------------------------------------------------------------------+
 Total params: 3,989,930 (15.22 MB)
 Trainable params: 3,989,930 (15.22 MB)
 Non-trainable params: 0 (0.00 B)

-- STEP 5: Training --
  Epochs: up to 30 (with EarlyStopping)
  Batch size: 32
  Image size: 180x180
Epoch 1/30
